models/model_name.bin (torch, 275046 bytes, 6 tensors)

linear1.weight f4 [256, 4]
000000 20 95 be 3e 18 d2 99 bd dc 92 70 be 84 61 0b be
       0.37223148 -0.07510775 -0.23493522 -0.13611418
000010 00 07 41 3b 3a 1d a1 be 41 66 a8 be 30 32 10 3d
       0.0029453635 -0.3146761 -0.32890514 0.035204113
000020 10 c5 c4 3e da 46 a2 be b4 66 7a be 50 ea 43 3e
       0.38431597 -0.3169468 -0.2445324 0.19132352
000030 4c 1c 9b 3e c2 2f 00 be 98 13 14 bf 84 b6 a5 3e
       0.30295026 -0.12518218 -0.578424 0.3236581
000040 6a 45 a3 3e ac 77 f4 be f7 62 b7 be dc 67 72 be
       0.31888896 -0.47747552 -0.35817692 -0.23672432
000050 a4 e4 fc 3e ac c5 19 c0 fd 3e 02 40 0e 37 a7 3e
       0.4939319 -2.40269 2.0350945 0.3265919
000060 18 9a c7 3e 76 52 7c bf 45 e5 94 40 9c 1b 9d 3e
       0.38984752 -0.98563325 4.652987 0.30685127
000070 32 45 cf 3e dd b9 2a bf fd 3d d5 bf fa d0 bf be
       0.4048248 -0.66689855 -1.6659542 -0.37464124
000080 04 d8 0c 3e ba 71 2b be ad 7f aa be 98 2f bc 3e
       0.13754278 -0.16742602 -0.33300534 0.3675506
000090 a0 db c2 3c 00 d0 d2 bd ae 3f a7 be ec 3f f2 3e
       0.023786366 -0.10293579 -0.3266577 0.47314394
0000a0 98 3c 3b 3e dd 32 7b bf 26 cf d8 be 5e 7f c9 3e
       0.18284833 -0.98124486 -0.42345542 0.39354986
0000b0 80 7b b0 bb 07 a3 82 be 5b 36 da be 4e e4 cf 3e
       -0.005385816 -0.25515005 -0.42619595 0.4060387
0000c0 96 f2 cc 3e 82 f8 f8 be e0 5e fb 3c 0a a1 a3 be
       0.40028828 -0.48627096 0.030684888 -0.319588
0000d0 e4 0b 5f be 8e c6 b9 be 92 dd 9e be c0 3b 20 3d
       -0.2178188 -0.36284298 -0.3102842 0.039119482
0000e0 84 2c 0b 3e 64 9d 1c bf 99 27 a7 be a8 c0 96 3d
       0.135912 -0.6117766 -0.32647398 0.07360965
0000f0 40 14 f3 be 05 b5 6e bf 54 ce 4a be 4a 1e bf 3e
       -0.47476387 -0.93244964 -0.1980527 0.37327796
000100 fc e0 bf be 78 8a ed be 21 11 f9 be b0 4a b7 be
       -0.37476337 -0.46394706 -0.4864588 -0.3579917
000110 88 d7 ae 3e d4 4f 98 be 00 a7 5e 3c e4 a9 38 be
       0.34148812 -0.29748404 0.013589621 -0.18033558
000120 da a5 a9 3e 00 c0 06 b8 c0 07 1e be ac c4 89 be
       0.33134347 -3.2126904e-05 -0.15432644 -0.2690786
000130 8c e8 3f be 10 64 e5 bd d2 16 ec be d2 73 e9 be
       -0.18741053 -0.11200726 -0.4611116 -0.45596176
000140 8c 43 54 3e 68 d1 8e be c6 1d 0d be d0 e3 d0 bd
       0.20728892 -0.2789414 -0.13780889 -0.10199702
000150 9e 82 8f 3e 1f 65 04 bf a0 13 f0 be 74 21 e6 be
       0.2802934 -0.517168 -0.46889973 -0.44947398
000160 a2 e6 bc 3e f8 4d 7b be a8 4c 28 be 60 e5 8b 3d
       0.3689471 -0.24541461 -0.16435492 0.06830859
000170 ba d6 a2 be e1 78 dc be 80 72 6e be f0 21 da be
       -0.31804448 -0.43060973 -0.23285866 -0.42604017
000180 0a f9 dc 3e 1c 20 2b be ab 11 f1 be 30 0f 8e 3d
       0.43158752 -0.16711468 -0.47083792 0.069364905
000190 c2 8e 9c be aa f2 98 be 5a 41 a4 be 5e 12 fd be
       -0.30577666 -0.29872638 -0.3208111 -0.49428076
0001a0 12 d5 9f be 9c 92 e5 be cf 2b 5d bf 66 42 83 be
       -0.31217247 -0.44838417 -0.8639497 -0.25636595
0001b0 72 3d d0 3e 93 55 db bf 9b 0d 1d c0 ac 5f d7 3e
       0.4067188 -1.713549 -2.4539554 0.4206518
0001c0 f4 b0 74 be 3b e9 74 bd 8b ab e7 be d4 6d 3f 3e
       -0.23895627 -0.05979274 -0.45248064 0.1869424
0001d0 fa 9c cf be 20 18 83 bf 33 cc 93 3f dc f2 64 3e
       -0.4054945 -1.0241737 1.1546692 0.22358268
0001e0 e2 1b e3 be 62 99 ae be d8 f1 a4 be 5a 43 ea 3e
       -0.4435721 -0.34101397 -0.32215762 0.4575451
0001f0 b2 47 a6 3e cc 1a 47 bf ba bb 9e be c8 88 bb 3e
       0.32476574 -0.77775264 -0.310026 0.36627793
000200 4e b7 d8 3e 53 c4 5a bf 6d 6d af be b4 a9 6f 3e
       0.4232735 -0.85455817 -0.34263173 0.2340458
000210 8a 42 96 3e 58 da 8f bf bf cf bf be 40 98 11 bd
       0.2934764 -1.1238508 -0.37463185 -0.035545588
000220 fc a7 8e be 91 7f 1c bf 67 23 c0 be 34 2e de be
       -0.27862537 -0.6113215 -0.3752701 -0.43394625
000230 20 ca eb be fc 68 b8 bf 4c b7 b1 3e 84 8f 8a be
       -0.46052647 -1.4407039 0.34710157 -0.2706262
000240 3c 56 7a 3e 9d ac 02 c0 a2 44 22 c0 74 05 97 be
       0.24446958 -2.0417855 -2.535439 -0.29496348
000250 80 7f d5 3b 11 33 bd be 60 e3 32 bd 00 fc e6 3c
       0.0065154433 -0.36953023 -0.043673873 0.028196335
000260 7a c8 b8 be f0 31 21 be 98 e6 06 be 9c c2 92 3e
       -0.3609045 -0.15741706 -0.13173902 0.286641
000270 80 f9 75 bd 1c ca ea be 72 c8 0c bf d8 74 63 be
       -0.060052395 -0.45857322 -0.54993355 -0.22212541
000280 00 07 e1 be 74 ac 42 be 52 d8 db be be 3b a4 3e
       -0.43950653 -0.19011098 -0.42938477 0.3207683
000290 7c eb de be 08 c7 d2 be f2 b6 e1 be 00 60 9b b8
       -0.43539035 -0.41167474 -0.4408489 -7.408857e-05
0002a0 60 3d 3a be d1 f7 ca bd 84 fa a0 be ea bc f0 3e
       -0.18187475 -0.099105485 -0.31441128 0.4701913
0002b0 50 d7 9f 3d e0 c1 d3 be 3b d7 1c bf 98 c4 e0 3e
       0.078047395 -0.41358852 -0.61265916 0.4389999
0002c0 50 a2 05 3e c2 7a 81 be 79 0c 4b bf 62 64 cf be
       0.13050199 -0.2528897 -0.79315907 -0.40506274
0002d0 4a bc a3 3e 1f 96 5e be 88 55 20 bf a0 13 95 be
       0.3197959 -0.21736954 -0.6263051 -0.29116535
0002e0 90 cb 37 be 6a ff 47 bd df 81 fa be 04 5a c3 3e
       -0.17948747 -0.048827566 -0.4892721 0.38154614
0002f0 a8 55 ec bd c0 74 81 bc f0 55 17 be 0a 00 c4 be
       -0.11539775 -0.015802741 -0.14778876 -0.3828128
000300 7a 7a b1 3e e4 97 ca be 1e f0 bd be 38 fd 34 be
       0.34663755 -0.39569008 -0.37097257 -0.1767472
000310 48 bb dc 3e a4 5d 1c bf 20 61 c7 be 18 dd c6 bd
       0.43111634 -0.61080384 -0.38941288 -0.09710139
000320 50 58 dd 3d 9a ad 15 bf 37 dc 09 bf 90 bb 97 be
       0.1080786 -0.5846802 -0.53851646 -0.29635286
000330 4a d3 e7 3e fd 5c 5d bf 62 40 a9 be 22 09 f8 be
       0.45278388 -0.86470014 -0.33056933 -0.48444468
000340 46 a7 8a 3e 1d fe 13 bf 8d a8 c9 be 60 f3 c3 3e
       0.27080745 -0.5780962 -0.39386407 0.38271618
000350 b8 56 34 be e8 3d 83 be fc 66 6f bf 10 8b cd bd
       -0.17611206 -0.25633168 -0.93516517 -0.1003629
000360 28 0b e9 bd 3a a1 09 bf 6a c7 f0 be 00 9a ee 3a
       -0.11379081 -0.5376164 -0.4702714 0.0018203855
000370 44 66 1b be d2 ce c3 be d1 98 ba be 40 21 24 be
       -0.1517573 -0.3824373 -0.36444715 -0.16028309
000380 6c 44 26 be 4e b2 f6 bf a6 c4 06 40 48 78 c0 be
       -0.16237038 -1.9273164 2.1057525 -0.37591767
000390 78 0f 3b 3e 6a 4f 76 bf d5 f9 8b bf 74 58 58 3e
       0.1826762 -0.96214926 -1.0935618 0.21127492
0003a0 24 ca 0d 3e 36 d7 f6 be 49 31 20 bf de 50 b9 be
       0.13846642 -0.48211068 -0.62575203 -0.3619451
0003b0 20 03 d6 be 23 f4 45 bf 3f 1f 43 be 48 71 ec 3e
       -0.4179926 -0.7732565 -0.19054888 0.46180177
0003c0 24 37 96 be 68 4c 4d be a9 cc f8 be f6 2b e7 be
       -0.29338944 -0.20048678 -0.48593643 -0.45150727
0003d0 d0 99 6c be 96 a6 15 be 40 6a 29 bf 08 d4 e1 bd
       -0.2310555 -0.14614329 -0.6617775 -0.1102677
0003e0 08 06 17 3e 62 e1 73 bd ac 56 cc be 62 da 89 be
       0.14748394 -0.059541114 -0.39909875 -0.26924425
0003f0 44 8a 49 3e c4 2a 13 bf 8f d3 c2 be e0 79 b3 bd
       0.1968165 -0.5748713 -0.3805203 -0.0876348

linear1.bias f4 [256]
000000 25 68 d2 be c3 9f e3 bf 16 6e ec be e4 2f 03 c0
       -0.4109508 -1.778313 -0.4617774 -2.049798
000010 ab b0 df bf e4 de 89 c0 2c ab e1 be 89 39 34 c1
       -1.747579 -4.3084583 -0.44075906 -11.264047
000020 68 74 16 c0 9c 65 45 be 51 36 d8 bf ba 08 1b c0
       -2.3508549 -0.19277042 -1.6891576 -2.4224076
000030 61 fc d8 be db 44 d5 be 90 23 3a bf b7 e9 8f bf
       -0.4238005 -0.41654095 -0.72710514 -1.1243199
000040 35 3a d6 bf d2 91 ab be 9c 17 9b be 34 28 69 bf
       -1.6736513 -0.3350969 -0.3029145 -0.9107697
000050 30 2e ea be 4b 52 f6 be bc ef da be 03 13 f4 be
       -0.45738363 -0.4810966 -0.42761028 -0.47670755
000060 02 f6 0c bf c0 f4 d1 bc 29 fe 86 c0 75 d8 fe bf
       -0.5506288 -0.025629401 -4.2185254 -1.9909807
000070 0e b1 f6 bf 73 af c6 c0 ed 12 4b bf 81 e2 f7 bf
       -1.9272783 -6.208917 -0.79325753 -1.9365999
000080 9a 2f dc bf 99 41 1d c1 1f 5d 8d be 02 7a 82 c0
       -1.7202027 -9.828515 -0.27610108 -4.0773935
000090 18 45 1e c0 d6 f9 29 bf f4 e6 60 be ef c8 5e bf
       -2.4729671 -0.66396844 -0.21963102 -0.8702535
0000a0 54 e3 6e be 28 af bb bf c6 2a 0d c0 2b 83 3a bf
       -0.23328906 -1.4662828 -2.2057357 -0.72856396
0000b0 01 19 c8 c0 31 96 23 bf 47 82 0c c0 b6 b2 d3 be
       -6.253052 -0.6390105 -2.1954515 -0.41347283
0000c0 69 48 0c bf 00 bb 9d bf a5 61 8a bf 44 5f bc bf
       -0.5479799 -1.2322693 -1.0811049 -1.4716573
0000d0 12 53 89 be 0b 74 4d bf 28 0e f2 c0 94 32 74 bf
       -0.2682119 -0.8025519 -7.564228 -0.95389676
0000e0 13 51 97 c0 42 87 b2 c0 f9 82 38 bf 26 46 f6 bd
       -4.7286468 -5.579011 -0.7207485 -0.120250985
0000f0 e7 c6 0b c0 3a 43 02 c0 c9 e1 05 c0 6d ac aa bf
       -2.184015 -2.0353532 -2.0919058 -1.333387
000100 5d 7b 17 bf be e1 4e bf 56 49 93 be f3 20 fb be
       -0.5917261 -0.80813205 -0.28766888 -0.49048576
000110 0a cf 04 bf c8 23 af bd 32 bf e6 be 99 05 40 bf
       -0.51878417 -0.085517466 -0.45067745 -0.7500854
000120 48 28 ac bf 54 00 12 c0 fa 2f 66 bf 79 e0 30 bf
       -1.3449793 -2.28127 -0.89916956 -0.6909252
000130 d1 75 4e bf 90 1a bc bf de 7b 05 c0 10 5d b8 be
       -0.80648524 -1.4695606 -2.0856853 -0.360085
000140 9e b8 62 bf 8a c3 8e be 8e 59 2c be f8 22 f0 be
       -0.88562953 -0.2788356 -0.16831037 -0.4690168
000150 5e 9e fc bf ab 86 b8 be 68 70 a2 bd fe d4 c0 bf
       -1.973583 -0.36040244 -0.07931596 -1.5065
000160 c2 05 9d be 1d 0f f6 be bf 5b a0 41 36 57 16 c0
       -0.30668455 -0.48058406 20.044798 -2.349073
000170 ee 6d eb bf 11 23 af be 4a 9a 37 bf 88 a9 39 be
       -1.8392923 -0.3420644 -0.717198 -0.18131077
000180 5e 99 e5 be 6a fc 06 c1 8c 31 0d bf b6 5b f8 bf
       -0.44843572 -8.436625 -0.5515373 -1.9402988
000190 a7 74 d5 be 07 a4 90 40 6e 9c 90 bf 6d 0e 55 bf
       -0.4169056 4.520023 -1.1297739 -0.83225137
0001a0 16 30 9f be 1f 39 cf be 80 8e 84 bd 8f ea 8e be
       -0.31091374 -0.40473267 -0.06472492 -0.2791333
0001b0 9c 6e b9 be 56 a2 a1 be fa 93 27 be 14 5b af be
       -0.362172 -0.31569165 -0.16365042 -0.34249175
0001c0 5e fa 84 bf 7a b7 19 c0 49 17 dc be ec b4 23 c0
       -1.0388906 -2.4018235 -0.42986515 -2.5579176
0001d0 5a f9 eb be b7 84 8b be 7d 4e 92 bf 2f 3c cd be
       -0.46088678 -0.2724969 -1.1430203 -0.4008498
0001e0 e8 aa cb be 04 85 df be 53 f3 3d bf 7f 90 1a bf
       -0.3977883 -0.4365617 -0.7419941 -0.60376734
0001f0 09 ab f5 be 8d a8 5b be c9 f6 f7 be 86 d7 01 c1
       -0.47982052 -0.21451016 -0.4843047 -8.115118
000200 08 d9 d6 be 34 2e fe be 21 a3 dc be b1 cb 66 bf
       -0.41962457 -0.49644625 -0.43093207 -0.9015456
000210 1b 61 bc be d9 c2 ab bf ea 05 57 bf 27 c0 43 bf
       -0.36792836 -1.3418838 -0.839934 -0.76465076
000220 14 42 73 be ac 5e a4 bf d3 d1 b2 be c8 9c d3 bf
       -0.23755676 -1.2841392 -0.34925708 -1.6532221
000230 4d 02 d4 be 7d f9 a9 be b0 52 e2 bd e3 da 19 bf
       -0.41408005 -0.33198157 -0.11050928 -0.6009962
000240 28 be 3b be 2c ed 1d c0 b2 3b cd bf 7f 6d c3 c0
       -0.18334258 -2.4676008 -1.6033843 -6.107116
000250 f0 90 9e bf ee 7c 0b c0 5e 59 5a bf 81 03 05 bf
       -1.2387981 -2.1795 -0.85292614 -0.5195847
000260 3a 8a 71 bf 34 0c 0b bf 40 63 11 bf 45 6b a6 be
       -0.9435154 -0.54315495 -0.5679207 -0.32503715
000270 b4 05 ba be 92 5f 85 be 07 3d 06 bf 8b 78 0a c1
       -0.36332476 -0.26049477 -0.5243687 -8.654429
000280 18 95 80 be 6c f8 0f c0 0e a8 89 be b0 85 e6 bf
       -0.2511375 -2.2495375 -0.26886028 -1.8009548
000290 60 11 cb bc 31 b9 d9 bf 67 14 1e c0 d4 ce 1c bf
       -0.024788558 -1.7009641 -2.4699953 -0.61253095
0002a0 8f bb 9e c0 b9 1d d7 c0 56 01 03 bf cb 92 a3 be
       -4.9603953 -6.7223783 -0.51173913 -0.31947932
0002b0 b0 fa 45 be 40 3f d4 bc 86 88 c8 bf ce 2b 79 c0
       -0.19333911 -0.025909066 -1.5666664 -3.8932986
0002c0 f2 ee 52 bf 67 e3 ee be 3b 20 34 bf 2c 57 bd be
       -0.8239585 -0.4665787 -0.7036168 -0.3698057
0002d0 88 83 e3 be 75 e6 11 bf e1 83 43 bf a0 0e 8a bd
       -0.44436288 -0.56992275 -0.76373106 -0.06741071
0002e0 40 36 27 be 0d 0e 68 be 17 0d 90 be db 44 fe be
       -0.16329288 -0.2266161 -0.28134987 -0.49661908
0002f0 ee e5 04 bf 72 d2 f4 be 4b 06 82 be 2e 7e 59 bf
       -0.51913345 -0.47816807 -0.25395426 -0.8495816
000300 73 f2 5c bf 1b 4e 39 bf 50 cb 90 bd 0c fe 77 be
       -0.8630745 -0.72384804 -0.07070029 -0.24218005
000310 67 d5 ed be e0 0b d3 bd ea c2 df be 0f 33 a7 be
       -0.46451876 -0.10304999 -0.43703395 -0.32656142
000320 6f 7f 85 c0 32 9d c6 be 44 c9 a1 be 27 68 54 bf
       -4.171806 -0.38791806 -0.31598866 -0.82971424
000330 2f cf ad be 16 97 ab be 16 71 e2 be 03 10 0a bf
       -0.3394713 -0.33513707 -0.44226903 -0.5393068
000340 e8 75 98 be 88 05 c4 be 23 2e 5c bf 11 0e 02 bf
       -0.29777455 -0.3828547 -0.860079 -0.50802714
000350 8c a3 9f be aa e9 f9 c0 8a 85 b4 be 45 e6 e5 bf
       -0.31179464 -7.8097734 -0.35258132 -1.7960898
000360 5c 58 7d be 83 a0 76 bf fc 17 80 be eb c2 9a be
       -0.24740738 -0.9633867 -0.250183 -0.30226836
000370 ff 89 ba be d5 9f 72 bf a8 22 c6 bf 45 94 8e bf
       -0.36433408 -0.94775134 -1.5479326 -1.1138998
000380 4a 68 cc bf 34 24 11 be 53 03 81 bf 08 b8 a4 be
       -1.5969326 -0.14173967 -1.007914 -0.32171655
000390 ee cf f7 be a4 56 45 be 7a 02 06 c0 52 39 81 c0
       -0.48400825 -0.19271332 -2.0939012 -4.038247
0003a0 d1 ce c2 be e6 1c 43 bf fd 10 f8 40 0a 14 82 bf
       -0.38048413 -0.7621597 7.752074 -1.0162365
0003b0 08 bc fb be 61 7a 8e be b3 a5 29 c1 0a 15 a2 bf
       -0.49166894 -0.27827743 -10.602954 -1.2662671
0003c0 70 b0 b0 be 9c ae 2b bf bb 95 d0 c0 14 06 cf bf
       -0.3450961 -0.6706331 -6.5182776 -1.617373
0003d0 b5 04 20 c0 b6 1a b8 be dd 57 7b c0 8f 1e c3 be
       -2.5002873 -0.3595788 -3.9272377 -0.38109252
0003e0 9e 9a d8 bf 79 0b d7 be 02 4f b3 be 7f 60 fb be
       -1.6922185 -0.4200094 -0.35021216 -0.49097058
0003f0 68 e6 d7 be a5 22 26 bf 7e 51 10 c0 0c 8c e6 be
       -0.42167974 -0.64896613 -2.254974 -0.45028722

linear2.weight f4 [256, 256]
000000 bc cb b6 bc d4 a2 08 3f 6a b9 3c 3d 3d 11 61 bf
       -0.022313945 0.53373456 0.046075262 -0.8791693
000010 08 88 26 3c 3f bf 40 bf 74 79 26 bd d7 4b 9e be
       0.010164268 -0.7529182 -0.04064317 -0.30917236
000020 07 f3 4c bf 80 02 1d ba 88 c2 63 3c 01 8d 35 bf
       -0.8005833 -0.0005989447 0.01390136 -0.7091828
000030 d6 da 00 3d 0c b2 43 3d a8 4e e0 3c 73 a8 14 bf
       0.0314587 0.04777722 0.027381256 -0.58069533
000040 b4 47 75 3d 38 d9 16 bd 78 6a a9 3c 74 29 45 3d
       0.059882835 -0.03682825 0.020680651 0.048135236
000050 e6 30 44 3d 8b 7d 7f be c0 04 8f bb ef aa 0d 3f
       0.047898196 -0.24950235 -0.00436458 0.5533895
000060 80 94 3f 3d 60 4e b6 bb aa 53 46 bf a0 ce 64 bd
       0.04677248 -0.0055635422 -0.7747141 -0.055861115
000070 80 91 57 bf 2a 43 4e bf 68 8e 0b bd 90 7e 18 3d
       -0.8420639 -0.80571234 -0.034071356 0.037230074
000080 e8 e6 04 bd 26 b1 2c bf 9b b3 22 bf 62 16 7f bd
       -0.03244677 -0.6745781 -0.63555306 -0.062277205
000090 e4 73 17 bd e7 20 b5 be 18 03 47 bc 30 96 8e bb
       -0.036975756 -0.35376665 -0.012146734 -0.0043514
0000a0 f0 43 40 bd 00 c1 18 bd 73 79 46 bf d0 38 18 3c
       -0.04693979 -0.037293434 -0.77529067 0.009290889
0000b0 6f 12 4f be 27 2e ed be ac b8 0f bf 88 e3 71 bc
       -0.20221876 -0.46324274 -0.5614116 -0.01476372
0000c0 81 59 cb be f8 1d 14 bf 18 36 b4 3c 59 2c 14 bf
       -0.39716724 -0.5785823 0.02199845 -0.5788017
0000d0 b5 76 96 be 81 f5 cc be cb fe 23 bf 04 03 64 3d
       -0.2938744 -0.40031055 -0.6406066 0.05566694
0000e0 34 dc 50 bf 21 32 19 be d4 29 6b 3d 0c 08 1b bf
       -0.81586003 -0.14960529 0.057412937 -0.60559154
0000f0 42 aa 80 bf 81 44 18 bf 26 a3 1f bf 98 1a 13 bf
       -1.0051959 -0.5947953 -0.6235832 -0.57462454
000100 f4 7d 94 be 5c e4 87 3c 8c c2 5c bd 2e 31 26 3d
       -0.29002345 0.016588382 -0.05389647 0.040574245
000110 b8 22 a4 bc d2 70 09 bf f0 5f 8b 3c e0 87 ab be
       -0.020036086 -0.53687775 0.01701352 -0.33502102
000120 f0 ac 64 3d 44 10 1f bf ff 37 08 3f 33 b1 ce be
       0.05582899 -0.62134194 0.53210443 -0.40369567
000130 96 94 f5 3e 05 f5 80 bf cf 80 48 bf fa fe 9e be
       0.47964925 -1.0074774 -0.78321546 -0.31053907
000140 94 b8 11 bf 0a f2 73 bd 62 89 20 bf be f8 b2 be
       -0.5692227 -0.059557 -0.6270963 -0.349554
000150 17 c6 47 bf be 07 11 bf cc 6f f6 bc d0 b9 f7 3c
       -0.78036636 -0.5665244 -0.030082606 0.03023997
000160 a2 8f 16 be ec 02 9d be 0e 55 a1 be 13 02 43 bf
       -0.14703229 -0.30666292 -0.31510204 -0.7617504
000170 33 94 0e bf 76 8e 12 bf 4d 1b 10 bf c8 89 c6 bc
       -0.55694884 -0.5724863 -0.5629166 -0.024235621
000180 76 26 5b 3d 82 80 48 bf 69 27 8b 3e c5 9a 58 bf
       0.053503476 -0.7832109 0.27178505 -0.8461116
000190 00 d0 70 bd 83 b8 0a bf a2 91 d3 be fc 68 32 bd
       -0.058792114 -0.5418779 -0.41322047 -0.043557152
0001a0 e7 0b a3 be 0f 5c 04 3f 6c 1c 9a 3c d4 31 3d 3d
       -0.31845018 0.5170297 0.01881238 0.046190098
0001b0 aa e3 0f bf 34 a0 d0 3c 58 65 10 bf c8 68 01 bf
       -0.5620676 0.025467016 -0.5640464 -0.5055051
0001c0 b1 83 a5 be fa c3 1e bf c4 a2 32 bd 48 65 be 3c
       -0.32327035 -0.62017787 -0.043612257 0.023241654
0001d0 a6 e4 69 bd da dd 1c bf 01 4a 04 bf 35 a6 8e be
       -0.05710282 -0.6127602 -0.5167542 -0.2786118
0001e0 d4 34 e3 3c e0 91 b9 bc c1 f4 00 3f 47 2a c4 be
       0.027735151 -0.022652566 0.50373465 -0.38313505
0001f0 15 16 08 bf 7f 6b dc be e9 9f 9f be 32 72 3c bf
       -0.53158695 -0.43050763 -0.3117669 -0.7361175
000200 c4 14 fa 3c 82 f3 90 be 7f 55 28 bf a8 5a 0d bf
       0.03052748 -0.28310782 -0.65755457 -0.55216455
000210 12 f0 00 bf 24 f1 52 3d f2 88 9a be 20 75 44 bb
       -0.5036632 0.0514995 -0.30182606 -0.0029977039
000220 d8 f3 7e 3c 68 29 f6 3c d2 4c a8 be e3 18 bc be
       0.015561067 0.03004904 -0.3287111 -0.36737737
000230 9d 57 c7 be 92 a6 f3 be 40 4e d6 ba 3e 50 a9 be
       -0.3893403 -0.4758802 -0.0016350225 -0.33069032
000240 00 90 51 b8 00 c5 bb 3b f4 75 cc 3c 04 31 51 bf
       -4.9963593e-05 0.0057302713 0.024958588 -0.81715417
000250 e9 88 08 bf 01 7a 4e bf 94 20 b9 bc ed 8b d0 be
       -0.5333391 -0.80654913 -0.022598542 -0.40731755
000260 d3 47 12 3f 10 ee 73 3d 5a f6 10 3f 4f c4 bb be
       0.57140845 0.059553206 0.566259 -0.3667321
000270 07 6c f5 be 4b 8c e8 bc 10 31 85 3c d8 48 52 bf
       -0.4793398 -0.02838721 0.016258746 -0.821424
000280 62 d0 4b 3d d3 9b 51 bf 4c f8 2f 3d 8d dc 14 bf
       0.049759276 -0.81878394 0.042961404 -0.58149034
000290 b0 47 64 3c 78 26 62 bd e3 90 3c bf 81 81 12 bf
       0.013933107 -0.055212468 -0.7365858 -0.5722886
0002a0 dc 0e 43 bf 88 91 9d be 88 2e 25 bf 48 f8 07 bf
       -0.7619455 -0.30775094 -0.64524126 -0.5311322
0002b0 00 d4 e1 3c bc 18 55 bd d4 25 76 3d 7c 50 32 bf
       0.02756691 -0.05202554 0.06009467 -0.6965406
0002c0 3f 0d d2 3e 3c a6 6c 3d d1 66 f0 3e 7b 92 ef 3e
       0.4102573 0.05777572 0.46953443 0.46791443
0002d0 70 6e 5f bd 94 ce 55 3e 73 0b da be 4c db ee 3c
       -0.05454868 0.20879585 -0.4258686 0.029157303
0002e0 e0 01 d8 3c 41 7a d4 be 32 49 7c be dc 55 29 bd
       0.026368082 -0.41499522 -0.24637297 -0.041341648
0002f0 2c 50 c5 be 62 9a d7 bd 8d 4e 0c bf ef 82 0e 3f
       -0.3853773 -0.10527493 -0.5480736 0.5566854
000300 95 18 49 be c4 86 c0 be 74 75 e8 3c e8 65 94 3c
       -0.19638284 -0.37602818 0.028376319 0.018114999
000310 00 34 15 bb 6e af 0e bd 88 59 21 bd 45 ea 32 bf
       -0.002276659 -0.03483527 -0.039392024 -0.69888717
000320 6d 1b 2d bf 26 d0 42 3d a8 4d 2c bf d0 d7 84 3b
       -0.67619973 0.047561787 -0.67305994 0.004054047
000330 83 15 91 be be 3b e4 3e da 96 26 3d 86 ce 23 bf
       -0.28336725 0.4457683 0.040671207 -0.63987005
000340 48 66 a3 be 58 2c 8e bc 84 b0 e9 3e a4 6e e2 be
       -0.31913972 -0.01735513 0.45642483 -0.44225037
000350 60 98 37 3b 13 52 46 bf cf 44 c4 be b0 84 09 3d
       0.0028014407 -0.77468985 -0.38333747 0.033573806
000360 f8 ea 8a bc 44 db df 3c 50 7c 85 be 45 68 c8 be
       -0.016957745 0.027326234 -0.26071405 -0.3914205
000370 7c 03 95 be 8c b0 0f bf fb 96 14 bf a2 73 b2 be
       -0.2910422 -0.56128764 -0.5804288 -0.34853846
000380 fd 7a 46 bf e1 5c b4 be a2 cc 71 3e 4a a6 06 bf
       -0.77531415 -0.3522711 0.23613217 -0.52597487
000390 26 8c 7e bd 58 82 3a bc 26 f2 44 bf aa 41 a4 be
       -0.062145375 -0.011383615 -0.7693199 -0.32081348
0003a0 fc c2 af 3c 60 84 57 bd ef 7d c6 be fb 4b 13 be
       0.02145528 -0.052616477 -0.38767955 -0.14384453
0003b0 b4 20 00 3f 06 7a 0f bf 79 ad 74 be be e7 4c bd
       0.500499 -0.5604557 -0.238943 -0.050025694
0003c0 92 f5 31 3d 7c 81 01 3d b0 f0 24 bf 1e 1b 06 3d
       0.043447085 0.031617627 -0.6442976 0.032740705
0003d0 4c f5 e8 bc 51 24 03 3f 61 26 55 be c4 b8 c9 be
       -0.02843728 0.5122729 -0.20815422 -0.39398777
0003e0 cf f4 10 bf ab ab a1 be 45 ba c8 be 60 9c 22 3d
       -0.5662355 -0.31576285 -0.39204612 0.039699912
0003f0 ee 27 6f bd 98 11 4e bc f0 c2 8b bf 06 56 30 bf
       -0.05838769 -0.012577437 -1.0918865 -0.6888126

linear2.bias f4 [256]
000000 06 e5 43 bf 25 1c 14 c0 ba 67 10 bf f0 2f 54 c0
       -0.7652134 -2.3142178 -0.56408274 -3.3154259
000010 a5 0f cc bf 68 7f 63 c0 fa f3 03 bf a2 34 29 c0
       -1.5942274 -3.5546513 -0.51544154 -2.6438375
000020 26 d3 90 c0 cc 4f 79 c0 46 ba c5 bf 65 38 c9 bf
       -4.525775 -3.8954954 -1.5447471 -1.5720335
000030 06 40 8c c0 53 57 4e c0 9f 65 69 c0 01 a2 2d 41
       -4.3828154 -3.2240798 -3.6468275 10.852052
000040 76 6b d1 bf 31 fb c1 bf 81 7e dc bf a8 2c 8b bf
       -1.636092 -1.5154783 -1.7226106 -1.0873003
000050 69 da 44 c0 d5 de e3 bf f3 ea 55 c1 73 58 c4 bf
       -3.0758307 -1.7802378 -13.369861 -1.5339493
000060 c7 0a ca c1 56 1f 06 c0 71 39 df be 0b a8 05 bf
       -25.255262 -2.0956626 -0.43598512 -0.5220954
000070 f9 54 57 41 41 d1 73 bf dc 5c 43 c0 d1 5a ac bf
       13.458245 -0.9524117 -3.0525427 -1.3465215
000080 6c ae bf bf 30 6a c9 bf db cd 07 42 d4 a8 f6 be
       -1.4975104 -1.5735531 33.95103 -0.4817568
000090 f0 20 09 bf b1 cc ca bf 48 22 bc bf 7b 56 9d bf
       -0.53565884 -1.5843717 -1.4697962 -1.2292017
0000a0 eb 15 df bf 36 38 01 bf df dd 3a 41 17 df 0e bf
       -1.7428564 -0.50476396 11.679168 -0.5580916
0000b0 19 0a cb bf ee 98 12 bf 82 b4 63 be 2b 57 0f bf
       -1.5862457 -0.572646 -0.22236827 -0.5599238
0000c0 8d 0b 0d bf 0e 46 f4 be 67 da 48 bf fb 51 84 c0
       -0.5509575 -0.47709697 -0.78458256 -4.1350074
0000d0 44 9f 0d bf b5 14 c6 bf e9 93 62 41 ec db 1a bf
       -0.55321145 -1.5475069 14.161111 -0.60491824
0000e0 ac 15 e9 bf f8 43 cd bf 15 c7 df be 92 b7 db bf
       -1.8209739 -1.6036367 -0.43706575 -1.7165396
0000f0 c2 18 c8 bf 36 a3 87 c0 80 ac 7c c0 6d 4d 8c bf
       -1.5632555 -4.238673 -3.9480286 -1.0961128
000100 a4 c4 25 c0 16 8a 1e bf 92 92 01 bf 55 5d 0e bf
       -2.590127 -0.6192945 -0.50614274 -0.55611163
000110 d6 b4 b7 bf 73 9f d0 be 33 80 09 bd 49 d6 81 bd
       -1.4352062 -0.4074665 -0.033569526 -0.063397
000120 1f 56 58 c0 e1 02 df bf 90 21 11 bf 29 72 1a bf
       -3.3802564 -1.7422754 -0.5669184 -0.60330445
000130 40 a0 08 bf b7 12 70 3f 2e ab 12 c0 09 47 e6 c1
       -0.5336952 0.93778557 -2.291698 -28.784685
000140 f7 f0 53 c0 bb 42 c1 bf 95 5d c8 bf 66 2e ef be
       -3.3115823 -1.509849 -1.5653559 -0.46715087
000150 79 5e d6 bf 25 87 0b c0 51 dd c4 bf 9d 6c ed bf
       -1.6747581 -2.1801236 -1.538004 -1.8548771
000160 51 f6 ac bf 05 3c 02 bf 3d 84 1f bf c0 2c fb be
       -1.351267 -0.5087283 -0.62311155 -0.4905758
000170 26 e8 c2 bf 3d 55 79 c0 e9 a0 d7 bf 73 5c 2a c0
       -1.5227096 -3.8958275 -1.6845981 -2.6618927
000180 6e dd f3 be a2 83 9f bf 40 07 61 bf 8c d4 72 c0
       -0.47629875 -1.2462046 -0.8790169 -3.7942228
000190 5e 05 c7 bf 05 98 d3 bf bd df 5b c0 08 86 49 bf
       -1.5548513 -1.6530768 -3.435531 -0.7872014
0001a0 d2 ae 0b bf b9 23 66 c0 5d 12 13 bf f1 5d dd bf
       -0.5456363 -3.5959303 -0.57449895 -1.7294294
0001b0 fe 6b d8 be cf e4 2b bf 90 37 c1 bf 41 b7 6f bf
       -0.42269892 -0.6714601 -1.5095081 -0.93639
0001c0 de 44 0c bf bd d9 8f be 90 44 bb bf 03 9d d0 be
       -0.54792583 -0.2809581 -1.4630299 -0.4074479
0001d0 f2 62 f3 be 38 a0 00 c0 e2 d3 19 42 26 5c d6 bf
       -0.47536427 -2.009779 38.456917 -1.6746871
0001e0 ff f0 0d bf 5d 89 22 bf 72 ae 68 bf 1b ce 07 bf
       -0.55445856 -0.6349085 -0.9089118 -0.53048867
0001f0 78 2d d2 bf 03 12 d3 bf 5a 58 08 bf 63 18 ce be
       -1.6420126 -1.6489872 -0.53259814 -0.4025298
000200 9c 91 c6 bf cd d4 cc bf a2 4f bd bf f1 80 04 c1
       -1.5513186 -1.6002442 -1.4789927 -8.28148
000210 d8 e4 a1 bf 1d a8 d8 bf f4 e0 a8 bf df d3 ab 40
       -1.2647963 -1.6926304 -1.319365 5.369613
000220 2e 28 da bf 0d 08 5a c0 2a b8 07 bf f9 67 62 c0
       -1.7043512 -3.4067414 -0.5301539 -3.537596
000230 38 4f 65 c0 14 1a d1 bf 94 d5 04 bf ed 3b 11 bf
       -3.5829601 -1.6336083 -0.51888394 -0.56732064
000240 d3 4f cf bf d4 62 de bf 28 60 15 bf e5 9a 0d bf
       -1.6196235 -1.737391 -0.5834985 -0.55314475
000250 68 44 eb be cf 97 12 bf 91 3b da bf b8 31 08 c0
       -0.45950627 -0.5726289 -1.7049428 -2.1280346
000260 9a 44 e3 be 99 18 d0 be e1 28 9f bf 78 8f d1 bf
       -0.44388276 -0.40643767 -1.243435 -1.6371908
000270 9b 2d 1d bf ff 53 87 bf 92 37 e5 bf da 90 ff be
       -0.61397713 -1.0572509 -1.7907584 -0.499152
000280 48 2f de bf 10 7b 39 41 a4 d7 03 bf 55 0c 14 3f
       -1.7358179 11.592545 -0.51500916 0.5783132
000290 30 44 cf bf 99 d6 06 42 a8 2a d3 bf 51 0f 06 c0
       -1.6192684 33.709568 -1.6497393 -2.0946848
0002a0 ab e4 da bf ca 41 1d c0 00 52 22 bf 4b d9 c8 bf
       -1.7101034 -2.4571404 -0.6340637 -1.5691313
0002b0 7c 03 c8 bf 82 a1 f8 be 67 7b b7 41 44 7d a1 41
       -1.5626063 -0.4856072 22.935255 20.186165
0002c0 68 8d 85 bf b7 d7 7c 42 af 10 24 c0 6f fd d1 bf
       -1.0433779 63.21066 -2.5635183 -1.6405467
0002d0 2a 1d 05 bf ab 57 ce bf c1 e6 e7 be 2f cf e0 bf
       -0.51997626 -1.6120504 -0.4529324 -1.7563227
0002e0 32 2c c8 bf 12 f0 c7 bf 30 26 18 bf b9 11 c8 bf
       -1.5638487 -1.5620139 -0.5943327 -1.5630409
0002f0 20 13 0a bc df eb 33 c0 0e bc e2 bf f7 47 55 bf
       -0.008427411 -2.8112714 -1.771364 -0.83312935
000300 ff ad 21 c1 f7 37 d9 bf 6f 69 e8 bf 92 e4 8a c1
       -10.1049795 -1.6970204 -1.8157176 -17.361607
000310 2c ef da bf 3e 6f 8f c0 3c 8d 0f bf b4 5d 87 bf
       -1.710424 -4.4823294 -0.5607488 -1.0575471
000320 3d dc 68 be f6 88 d9 be 08 0b 27 bf 8f 31 d1 bf
       -0.22740264 -0.42487305 -0.6525121 -1.6343249
000330 81 3c 57 bf 86 cc 19 bf f8 56 10 bf 83 6c de be
       -0.84076697 -0.60077703 -0.56382704 -0.43442163
000340 98 11 ff be 73 0c 35 bf 0b ff 06 bf 03 db c6 bf
       -0.4981811 -0.7072212 -0.52732915 -1.5535587
000350 1d c1 b5 be dd db 51 bf 90 80 c9 bf 3e bc 1d c0
       -0.35498896 -0.8197611 -1.5742359 -2.4646144
000360 71 83 8c c0 4c d4 c1 bf 05 9d 8e c1 22 ea c3 bf
       -4.391045 -1.5142913 -17.82667 -1.5305827
000370 74 b7 4b c0 df 3f c0 bf 69 9b 72 c0 62 7e 30 c0
       -3.183072 -1.5019492 -3.7907355 -2.7577138
000380 66 3a 0f bf 7c b4 d3 bf aa 71 d2 bf 7a 18 83 c0
       -0.55948484 -1.6539454 -1.6440938 -4.096738
000390 55 17 f6 bf ea 3c cd bf df 10 ef be 6a ce d8 bf
       -1.922587 -1.6034214 -0.4669256 -1.6937993
0003a0 ba 1c d6 bf d2 f4 26 c0 b7 e7 2b c0 2d 91 2f bd
       -1.6727517 -2.6086926 -2.6860178 -0.04286306
0003b0 2e a7 25 c0 e2 f1 90 be a3 17 c2 bf ca 98 de bf
       -2.5883288 -0.28309542 -1.5163463 -1.7390378
0003c0 7a 37 c9 bf 72 8e 0a bf 17 c5 ab c1 1d 45 19 bf
       -1.5720055 -0.54123604 -21.471235 -0.59871083
0003d0 75 81 45 be 92 ab e8 be 02 ed 2e 40 90 e7 06 bf
       -0.19287665 -0.45443398 2.7332158 -0.52697086
0003e0 b1 5b 0e bf 15 7f c3 be 91 2f ca bf 3c 3d 06 bf
       -0.5560866 -0.38182893 -1.5795766 -0.52437186
0003f0 ac 75 e1 bf a7 d1 84 c0 bd 42 25 c0 7b f1 ba be
       -1.7614036 -4.1505923 -2.5821984 -0.3651236

linear3.weight f4 [4, 256]
000000 9a 89 1e bc ee 2f c8 3e 0e 00 0c bf 8b 59 b0 3d
       -0.009676361 0.39099067 -0.54687583 0.08610829
000010 61 d3 ca 3e f2 62 da be 71 de 15 bf fd 10 08 3d
       0.39614394 -0.42653614 -0.58542544 0.033219326
000020 90 3d c5 3f 34 9a 1c 3e 64 aa c5 3e e4 81 2c bf
       1.5409412 0.15293199 0.3860656 -0.673857
000030 b0 8b 3b 3e 18 21 1f bf 6c 30 01 3e 4f 68 83 c1
       0.18315005 -0.6215987 0.12616128 -16.425932
000040 39 ac 29 bf 90 f8 ed 3e 5d ed 16 3f 18 92 bf 3e
       -0.66278416 0.464787 0.5895594 0.37416148
000050 54 1c 1b 3e ab e3 1c 3f 69 35 56 41 f1 eb f8 3e
       0.15147525 0.61284894 13.38804 0.4861751
000060 e4 96 c6 40 83 47 cd bf b5 08 d0 3e 7e d4 0d bf
       6.2059193 -1.6037449 0.40631643 -0.5540236
000070 c0 48 29 c1 e2 a4 a1 3f 87 af c7 3f 85 a1 cb 3e
       -10.580261 1.2628443 1.5600442 0.39771667
000080 64 5a db 3f cd 5c 00 be fe a4 bc c0 03 03 16 bf
       1.713696 -0.125354 -5.8951406 -0.58598346
000090 6e 32 ec be aa b4 35 3e 37 ab db 3e 85 dc c8 3e
       -0.46132225 0.17744699 0.42904064 0.39230743
0000a0 4e dd 14 3f 08 7c 03 bf 0e c2 89 bf df 28 f7 be
       0.58150184 -0.5136113 -1.0762346 -0.4827337
0000b0 10 0e 52 3d 89 19 ed be f5 31 21 3e 52 85 12 bf
       0.051282942 -0.46308544 0.15741713 -0.5723468
0000c0 cf 83 13 bf f6 ff e8 3e 07 fd cf bf a5 8f 84 bf
       -0.57623 0.45507783 -1.6249093 -1.0356337
0000d0 46 1a 02 bf 1c 53 de 3e 53 43 33 c0 28 72 0a bf
       -0.5082134 0.43422782 -2.8009841 -0.5408044
0000e0 e0 c9 e2 3e 00 13 d4 3e 92 3d 15 40 45 6c 10 3f
       0.44294643 0.41420746 2.331883 0.56415206
0000f0 50 4d dd be c0 56 81 bf 29 89 70 c0 4e cb fd 3e
       -0.43223047 -1.0104599 -3.7583716 0.49569172
000100 05 9b 30 bd 30 43 25 be 0e 28 09 bf 3d cb e8 3e
       -0.04311659 -0.16138911 -0.53576744 0.45467559
000110 8f 84 d3 3e e5 00 f0 3e 61 3b 0d be 43 0e c1 3f
       0.41312072 0.46875682 -0.13792183 1.5082477
000120 55 af 09 bf c2 41 e1 3f da 69 12 bf fe 70 11 bf
       -0.5378316 1.7598193 -0.57192767 -0.5681304
000130 23 62 07 bf 79 7a 6a 40 12 13 8d bf 28 ce 19 41
       -0.5288412 3.6637251 -1.1021445 9.612831
000140 6d ec 3d 41 0c f8 d0 3e 41 57 ed 3e b2 85 ec 3e
       11.870221 0.40814245 0.46355632 0.4619575
000150 14 e1 1b 3f d1 b8 95 bf eb 2a 5f be f5 3b 41 3f
       0.60890317 -1.1697026 -0.21793716 0.7548211
000160 b7 24 5d 3f d0 76 66 3c 0a 46 0d bf 8c 62 e9 be
       0.8638415 0.014066413 -0.55184996 -0.45582998
000170 db e5 af 3e 4a 8f a0 bf 85 46 2a 3f e8 71 5d 3f
       0.34355053 -1.2543728 0.66513854 0.8650193
000180 af 71 fb be 8b 6b 44 bf 3e 13 29 bf 0f 59 7c 3e
       -0.4911017 -0.767266 -0.66044986 0.24643348
000190 de e1 d0 3e 6d bb 28 bf 92 93 d6 3f e9 8b df bf
       0.40797323 -0.6591099 1.6763785 -1.7464572
0001a0 ed 1a eb be e9 76 c1 be c5 e7 00 bf b8 33 18 3f
       -0.4591898 -0.37786034 -0.5035365 0.59453917
0001b0 a2 95 bb 3e 20 e1 06 bc 3f 69 d1 3e ee 92 38 3e
       0.36637598 -0.008232385 0.4090061 0.18024799
0001c0 41 aa 07 bf c8 05 08 40 a4 9c d0 3e f6 0b 30 3f
       -0.5299416 2.1253529 0.40744507 0.6876825
0001d0 cf d0 02 3f ae 1b d0 bf 89 b8 26 42 fd 41 1d 3f
       0.51099867 -1.6258447 41.68021 0.61428815
0001e0 70 37 e1 3b 3d e0 08 bf 33 38 95 bf b3 5e 0e bf
       0.0068730637 -0.5346716 -1.1657776 -0.5561325
0001f0 b0 c7 02 3f b5 86 20 bf 50 3c 14 bf 97 79 cf 3e
       0.5108595 -0.62705547 -0.5790453 0.40522453
000200 3f 92 91 be fa c6 27 bf 00 bf 3c bf 99 42 8c 40
       -0.2843189 -0.6553799 -0.7372894 4.3831296
000210 5f ae c3 3f e5 c7 c1 3e 4f 35 8d 3f b9 15 1a c0
       1.5287589 0.3784782 1.1031893 -2.4075758
000220 10 b5 1f bf 6b 3f 0b bf 51 ab 02 bf 62 ec 2e bf
       -0.62385654 -0.54393643 -0.5104266 -0.6832944
000230 40 bf 2c bf 6f 26 07 bf 5a 98 00 bf e7 8e cf be
       -0.67479324 -0.5279302 -0.5023247 -0.40538713
000240 d3 7e a9 be 4a 7d 13 3f 82 0f f9 be 28 eb 01 3f
       -0.33104572 0.5761305 -0.48644644 0.50749445
000250 45 83 e8 3e b4 62 08 bf b2 83 16 3f 8e c8 c0 bf
       0.4541265 -0.5327561 0.587947 -1.5061204
000260 df d8 e3 3e 5e 40 c1 3e 7d bf f1 3f c0 d6 0d 3f
       0.44501397 0.3774442 1.8886563 0.5540581
000270 9c 09 23 bf e8 58 e0 bc da 6c 1d 3f a5 8f 15 bf
       -0.6368654 -0.027386144 0.6149422 -0.5842231
000280 58 b0 1c 3f b1 8e a4 bf 56 cc dc 3e 18 f9 32 3f
       0.6120658 -1.2856046 0.43124646 0.69911337
000290 a1 fc 19 bf 25 d7 55 c1 a0 07 c9 3e a3 ba cd bf
       -0.60151106 -13.3650255 0.3926363 -1.6072582
0002a0 cc 00 27 bf f4 ea bd 3f 04 62 0a bf 70 5a 0f bf
       -0.6523559 1.4837327 -0.5405581 -0.5599737
0002b0 ed f0 0a bf c4 ff e2 3e ff 93 1a c1 54 49 3e 3d
       -0.54273874 0.4433576 -9.661132 0.04645665
0002c0 51 24 e9 3e 0e 5d 9c c0 8c d6 c1 bf 67 72 ef be
       0.4553552 -4.886359 -1.51436 -0.4676697
0002d0 f2 fd 08 bf 08 63 cd 3e c9 74 e7 3e 1b e5 e4 3e
       -0.5351249 0.40114617 0.45206288 0.44706044
0002e0 a2 f5 d1 3e b7 ff d4 3e db 47 0d bf fa a9 05 bf
       0.41007715 0.41601345 -0.5518777 -0.5221249
0002f0 c8 a7 a5 bc a3 7d 1b c0 69 80 07 3f 47 41 29 be
       -0.020221606 -2.4295433 0.52930313 -0.16528808
000300 5c 1c 5b 40 4a 23 1a 3f b9 79 3b 3f fe d4 b8 40
       3.423606 0.60210097 0.7323261 5.776
000310 b1 59 19 3f d4 d9 21 bf 10 4e fa be 1a 3b 36 3f
       0.59902483 -0.63223004 -0.48887682 0.7118393
000320 d2 01 9b 3f 4f 1d c1 3e 7e 82 18 bf ba 4d 00 bf
       1.210993 0.37717673 -0.59574115 -0.501186
000330 2c bb a2 3e d8 7c 07 bf 8a cb 00 3f a8 20 16 bf
       0.31783426 -0.5292487 0.50310576 -0.5864358
000340 a0 d7 50 3c 7c a5 2a bf f2 c5 09 bf 5f a5 18 3e
       0.0127467215 -0.6665876 -0.53817666 0.14906834
000350 c1 0a 0a 3f d4 f2 cb 3e 2b 7b d6 be ce 54 03 41
       0.5392266 0.398337 -0.41890845 8.208204
000360 fc 2b 27 bf c4 8c d2 3e c2 27 30 40 97 af e6 3e
       -0.6530149 0.4112302 2.7524266 0.4505584
000370 ac 05 d1 3b 98 4e 1b bd be 09 ac 3d ab f8 59 bf
       0.00637885 -0.03791675 0.08400296 -0.8514506
000380 e7 3e 07 bf d5 20 20 bc 2f 0a c7 3e f8 59 12 bf
       -0.52830356 -0.009773453 0.38874957 -0.5716853
000390 88 d1 ac 3e a7 25 27 3f e2 bc fe 3e c0 96 17 3f
       0.3375361 0.6529183 0.4975348 0.592144
0003a0 eb 7d 2a 3f b2 ff bc 3f 8e 66 36 c0 ef 9d 51 3d
       0.66598386 1.4765532 -2.8500094 0.051176008
0003b0 ee 89 7d 40 1b c2 0b be 67 b7 d1 3e 36 94 15 3f
       3.9615436 -0.13648264 0.40960237 0.58429277
0003c0 0a e3 df 3e 35 4a 08 bf f2 d1 05 41 7c 17 01 bf
       0.43727905 -0.5323823 8.363756 -0.5042646
0003d0 db de 83 40 9e 5a 13 bf ab b4 73 c0 cd d0 38 be
       4.120954 -0.57560146 -3.807902 -0.18048401
0003e0 73 58 0f bf a9 64 16 bf 74 8f ee be 25 bc 12 bf
       -0.5599434 -0.58747345 -0.4659382 -0.57318336
0003f0 27 87 e0 3e 49 9f 63 bf b4 7e be 3f 47 31 17 bf
       0.43853113 -0.88914925 1.4882417 -0.59059566

linear3.bias f4 [4]
000000 ea 9a 12 c1 12 ee 3b 40 cf 78 ce 3d 3f 5f 92 c0
       -9.162821 2.9364057 0.10081636 -4.5741267
